best_weights_20251125_233637.npy (npy, 2640 bytes, 1 tensors)

array f8 [314]
000000 10 97 24 73 31 b8 bc bf 23 2c 84 bc d6 53 d6 bf
       -0.1121855646238965 -0.3488671151141622
000010 20 b0 e8 b1 3a 68 c5 bf 8e b2 a1 6c eb 63 e0 bf
       -0.16724332510909878 -0.5121972200118579
000020 b6 ab 57 b1 c8 76 d6 bf 0c e4 34 0c 0c b4 ed bf
       -0.35099999731636033 -0.9282284010324715
000030 f8 23 ca f4 ee 3a b6 3f 13 81 85 14 3d 6b 9d bf
       0.08683675266560431 -0.028729395272763258
000040 68 23 f2 cb ce 71 f6 bf 6c a5 7a 14 be a5 f9 3f
       -1.4027851072916864 1.60296447753566
000050 39 72 b5 25 c4 cb db 3f 36 06 e3 c4 77 62 d5 bf
       0.43431190187928653 -0.33413500048854716
000060 14 87 48 71 c7 e1 f8 bf e4 44 16 50 af 69 e1 3f
       -1.5551218438271848 0.5441509784888265
000070 6e c3 57 49 6f 38 cc 3f 10 ce 39 5e 6a ad ec bf
       0.2204722507590548 -0.8961688843104998
000080 ae 98 ae cf 77 bc 8d bf 38 70 b0 52 10 03 eb 3f
       -0.014519630456402002 0.8441239943526915
000090 ac 3f 88 ca 7a 18 e2 bf 20 0e e0 91 26 ce f1 bf
       -0.5654882388789608 -1.1128297518015486
0000a0 8c 9b a8 e7 76 06 ba 3f 91 f2 ce 80 c9 7a f5 bf
       0.1016611400196849 -1.3424773246362387
0000b0 70 a0 10 fa 96 bf c4 bf 6c 6f f2 d0 13 ad 91 bf
       -0.16209685526087325 -0.01726180041133267
0000c0 22 d7 09 3c 0f b4 e5 3f 2a 27 6d 70 52 4b d7 3f
       0.6782299206376801 0.36397229174746093
0000d0 02 03 c3 ee 0f f2 d5 bf 80 3c d5 74 18 d5 cb bf
       -0.3428993064554079 -0.21744065956815817
0000e0 7b 9c 6e 27 00 84 c7 3f 88 ee c1 e6 2a 82 c3 3f
       0.1837158386744909 0.15240989940126703
0000f0 b2 c3 35 a6 89 bd ef bf f0 06 6b af 20 c2 99 3f
       -0.9918869253434563 0.025154600817365258
000100 e0 5a 8b c4 aa dd f0 bf fe ca 14 1b 6b 38 e0 3f
       -1.0541179349435694 0.5068870095186353
000110 a4 82 39 2e 8b 8e d1 bf ba 79 eb 27 0a 2d d2 3f
       -0.27432517542005486 0.2839990033952763
000120 2c 1b 2a 50 8c d2 f3 bf 22 52 2f 59 05 73 e7 3f
       -1.2389033442902457 0.7327906362430137
000130 9a 8c 70 ce 3b dd ad bf d8 be 00 60 80 d4 e5 bf
       -0.05832850356116488 -0.6821901202256084
000140 ae 1c ee 1f 51 23 71 3f b2 ed 2f 9a ef 00 a3 bf
       0.004184071439232868 -0.03711651570480558
000150 f8 8c b9 0d b9 a5 b9 bf be 0d 1b a1 9b 91 f3 bf
       -0.10018498025015166 -1.2230488103094639
000160 72 00 97 e8 76 9b dc bf e6 43 f1 ce d9 b3 da bf
       -0.4469887992272624 -0.4172272225305832
000170 16 71 90 63 8c c5 e5 bf 0d a8 c8 29 7d 81 ed bf
       -0.6803647942174702 -0.9220567527856943
000180 68 df 60 d0 89 74 ee 3f 13 bf 87 c6 dc 82 e0 bf
       0.9517258710757064 -0.5159744145912292
000190 c6 a7 5c 2c 35 54 d5 3f 81 a8 1a e7 f5 7a 2f bf
       0.3332646306249639 -0.000240175740647889
0001a0 62 5f 3c f8 6d ef da 3f 58 dc 74 45 51 4c db bf
       0.4208636211565048 -0.4265330484663017
0001b0 c7 09 5a e8 5c 9b c6 bf ce dd df 1c 76 f7 db 3f
       -0.17661630006121085 0.4369788438775374
0001c0 61 a3 7f 93 1c db e3 bf 52 cd ef 9c 55 5c f6 bf
       -0.6204970246154567 -1.39754258445176
0001d0 07 c8 ba fb 98 ad c7 3f 5a e2 a4 46 92 4a ee bf
       0.18498527804837314 -0.9466029529349484
0001e0 ba 7a 4e 4f c5 6f e8 3f 62 d7 36 89 c6 92 00 40
       0.7636438893276456 2.0716677398549317
0001f0 4c 9f 4a bc 23 f1 02 40 4c 49 69 16 60 06 e3 3f
       2.367743941333094 0.5945282399864396
000200 cc 9a ef 81 20 d8 08 40 69 f6 8d 88 c6 ac f0 bf
       3.105530753254561 -1.0421815237199559
000210 d8 7e 7c 25 db 77 c0 3f df ef 84 0a 60 20 db bf
       0.12865771608721022 -0.42385102298044147
000220 a1 66 e0 e1 f9 9d d8 3f 18 7a f4 d4 8c fc 12 40
       0.3846420961213913 4.746630980893791
000230 4c 7e 0a 18 06 23 c0 bf 14 c4 78 6a df 5e e5 3f
       -0.1260688416850705 0.6678311423803529
000240 96 1b 95 31 76 70 97 bf b6 e5 93 ca 43 ee e5 bf
       -0.022889944816849438 -0.6853350597950143
000250 4a c8 67 3d fb 8f db bf 64 67 0d 4d 9e 12 db 3f
       -0.43066292759533964 0.4230113747085993
000260 50 ef af 64 95 59 b5 bf 70 bb 6f e8 53 0a e3 bf
       -0.08339818676171018 -0.5950107135557641
000270 b8 c5 a8 e2 94 16 e2 bf ae b5 20 0b 3f 8c e0 3f
       -0.5652565409601982 0.5171199052180577
000280 82 04 7d 44 1b a9 db 3f e6 3d c4 89 19 f7 63 bf
       0.4321964424926322 -0.002437162284088623
000290 64 35 84 bb cb f8 e1 bf f6 37 17 9f 80 61 c7 bf
       -0.561620584719702 -0.18266303794956656
0002a0 9f ee 52 1f fe a3 e0 3f 50 28 a0 56 6e be ed 3f
       0.5200186359210938 0.9294959728151841
0002b0 a8 30 f8 a2 4d a9 d2 bf 3c e9 ed c9 ba e7 c8 3f
       -0.2915834514140081 0.1945718275054079
0002c0 39 ba 8c 87 36 a2 c8 3f d2 f5 8d 24 5a a3 c2 bf
       0.19245034807814124 -0.14561011109246508
0002d0 cc 50 a3 7b 56 f9 cb 3f 78 ad 71 4e 7d 7a fe bf
       0.21854668652543408 -1.904904657766421
0002e0 3e a9 1f 37 61 b0 d7 3f da bb 87 68 b7 d1 d6 bf
       0.3701403654400969 -0.35655007560757
0002f0 62 5b 6f 6c d7 94 cd bf 72 1c f8 bf 3f 17 e4 bf
       -0.23110478205372958 -0.6278380154989363
000300 48 d0 77 44 06 1e f4 3f 20 58 81 bf e8 99 d1 bf
       1.257330195859156 -0.2750188703697649
000310 dc ae 2a 52 dc ee f1 bf da aa 20 ce bd 19 f0 3f
       -1.120815583194534 1.0062845279559753
000320 d4 d0 93 f9 cf 12 e5 bf 1a 84 e4 a6 31 d4 d5 bf
       -0.6585464357908912 -0.3410762910662598
000330 b2 36 79 23 5f 47 d2 3f 0e ee 0e 52 c7 60 ea 3f
       0.28560617889602746 0.824313793440014
000340 3e f6 ab ad ef 03 c8 3f 0e c5 58 15 f1 3b e2 bf
       0.18762012462677718 -0.56981710595406
000350 28 75 3f 6b d8 2d ae bf e8 1e 56 7b ac a8 91 bf
       -0.05894352254083862 -0.01724500181947422
000360 0e aa 2e 6d 06 fe c6 bf c8 93 0e 52 9a 91 d0 bf
       -0.17962723094144945 -0.25888689053891456
000370 f8 71 44 e2 49 84 a3 bf 9e d7 c1 05 1d ad e1 bf
       -0.038118656988647304 -0.5523820030637017
000380 ea 6b cc 64 7d 4e db 3f ba cc 12 4b 80 d1 e0 3f
       0.4266656383858264 0.5255738703039221
000390 7a 91 db 67 11 92 fd 3f 28 91 19 e2 8c 2b fa 3f
       1.8481611306134185 1.6356324035669534
0003a0 a6 4d 43 90 fb 85 08 40 b6 dc 2b 65 01 b4 03 40
       3.065421225599226 2.4628932861338297
0003b0 8e 9c 8d 83 9e e1 e8 bf 45 1f 94 6e 0c 69 d9 bf
       -0.7775414056203702 -0.39703665541354766
0003c0 f8 d6 56 68 53 2f c1 bf 4e f1 bf 46 20 78 ca bf
       -0.13425676912964213 -0.20679095701769729
0003d0 de 64 7f 92 8e 99 a4 3f b6 4a 0f d7 4a 1d cd bf
       0.04023404634762938 -0.22745643139804422
0003e0 84 5e 20 76 78 16 ad bf a0 73 2c eb 50 c3 d3 3f
       -0.05681206171010181 0.30879614797759736
0003f0 77 e8 f5 45 ba 45 cd 3f a8 82 3a c0 a8 f4 a5 3f
       0.22869041839641444 0.04288222643413536
000400 b6 4f db 5f c9 22 e2 3f b4 53 9c 19 b7 a6 e6 bf
       0.5667464134407882 -0.7078509807785083
000410 72 78 22 ba 32 75 c6 bf 31 74 4a 20 22 60 d7 bf
       -0.17545160378080343 -0.36524251130487345
000420 24 09 1f cb ce b8 cc 3f be 61 29 ef 5f c3 f0 3f
       0.2243898860743424 1.0476989118816245
000430 9d 48 a5 d9 b1 7f e6 3f f6 e1 ab bc 22 8f e1 3f
       0.7030877352610961 0.5487226185787779
000440 49 2c 8a 18 a8 f0 e9 3f 98 de fb 71 5d a1 f4 bf
       0.8106270293514025 -1.2893957569594132
000450 bc ff 29 81 2e aa d0 bf 60 54 2b 62 4e 2b e7 bf
       -0.26038706411054213 -0.7240363995903287
000460 2c 92 d0 e3 20 74 eb bf a4 db 59 74 73 87 91 3f
       -0.857925839377065 0.01711826703691667
000470 62 39 49 33 24 b5 d5 3f ac 4f 07 25 28 dc d4 bf
       0.3391809941139369 -0.3259373056036974
000480 87 59 d7 d5 fe b7 ee 3f 59 d4 7e ee c0 17 db bf
       0.9599603821359758 -0.42332480707711323
000490 52 c9 16 b0 85 38 cf 3f fa ce cd 00 0f b1 b2 3f
       0.24391242120834505 0.07301419992091587
0004a0 3c 0d e9 20 52 e4 c2 bf 4c 2a 56 bd 13 1c cc bf
       -0.14759279829932292 -0.2196068453307184
0004b0 70 d4 76 09 00 b7 d0 3f 8c 25 67 42 f0 62 e7 3f
       0.2611694424079536 0.7308274552280394
0004c0 2c 86 03 2e 23 0b f0 bf 9c a6 34 bc 89 c0 e7 bf
       -1.0027190968907105 -0.742253177251047
0004d0 30 47 7f b0 4d d8 f1 bf fe fb 78 5e 02 79 dc 3f
       -1.1153084654255956 0.4448858187278687
0004e0 94 9b 63 32 7a e9 ce 3f 47 c7 97 97 e2 3d b1 3f
       0.24150016270069996 0.0673505420780006
0004f0 48 10 f7 cf 6c fe 70 bf d0 c5 f3 85 cd 97 c6 bf
       -0.004148888634009813 -0.1765076545776041
000500 08 74 27 2c 65 63 a0 3f 96 5f 32 65 47 7d d9 3f
       0.03200832523337033 0.39827141649720355
000510 80 3d 67 83 bc ca b5 bf 02 eb 7f bb aa 4e c8 bf
       -0.08512476165855354 -0.18990072398431584
000520 10 ba a9 38 15 14 f3 3f b3 b8 cd ce c8 c7 ac bf
       1.1924030507467513 -0.056211734051303884
000530 7e 5a d5 9b 7c 34 f0 bf f8 5b d5 b0 0d 42 df bf
       -1.0128141486399325 -0.4884065844429979
000540 c2 88 1f 5c b7 78 d0 3f 25 7b 37 b8 c4 92 d2 bf
       0.25736793514637324 -0.29020803441919646
000550 56 d7 9f 77 8d e7 e1 3f be 92 f6 b3 23 e1 b8 bf
       0.5595156990445769 -0.09718535560257188
000560 02 83 a3 e8 28 2c fd 3f 6a 00 0b ec 81 0e e1 3f
       1.8232812011194146 0.5330209360327107
000570 90 96 00 f2 94 71 cb 3f 40 5f b4 db 3c a4 f4 3f
       0.21440374199407986 1.2900971014223188
000580 c2 c9 ee 04 74 1f e0 3f 6a d1 fa 2a 41 ff b9 3f
       0.5038395019858444 0.1015511255198526
000590 ec 12 9a c0 7e 67 dc 3f 07 3c c1 c6 e5 df e9 3f
       0.44381684120916876 0.808581245606434
0005a0 d2 1f c2 b6 0c ea d2 bf a2 b7 27 2d df ce f4 3f
       -0.2955352577923779 1.300505806338585
0005b0 4a 4f 71 74 03 9e f9 bf 2c 3d 87 6f 5a 80 f0 bf
       -1.6010775135554973 -1.0313362461636855
0005c0 78 2e 1a 67 24 62 e6 3f d8 f3 a9 95 f1 e9 01 c0
       0.6994802488056413 -2.239230317353286
0005d0 d0 a9 f2 29 09 ad c9 bf 94 27 79 32 f5 b0 ea 3f
       -0.20059313343274576 0.834101294117533
0005e0 0d ca 4e 65 08 bc df bf 98 60 65 fc 80 de cb 3f
       -0.4958516110738465 0.21772777866386117
0005f0 9c b0 94 50 5d 91 c0 bf 45 06 62 10 50 f3 ed 3f
       -0.12943617281542152 0.9359512634257007
000600 7e 3f f3 93 68 0b ed bf 4a af 4a 89 52 f6 e1 bf
       -0.9076426400806523 -0.561318653247761
000610 ea d7 d4 bb b2 04 7a bf 20 92 5d 1d 4d 8f b9 3f
       -0.006352136782245646 0.09984285323077602
000620 9e 01 d2 ca 3d 88 f3 bf 10 27 15 21 e8 3d ed 3f
       -1.2207620546979352 0.9138069769043984
000630 1e ac 41 6f ee 1f d2 3f e2 e3 b4 cc b5 eb e5 bf
       0.2831989370812965 -0.6850232122588944
000640 04 2f 2d 2d d6 ee f0 3f 8e 18 bd 39 57 67 ec bf
       1.058309723349283 -0.887614834566891
000650 6c c9 77 51 df a2 cf bf a8 af 87 3f 48 50 e1 bf
       -0.24715796926427502 -0.5410500756092818
000660 32 8e 41 2f 98 7c de bf 7d d7 7c a4 a7 8d c7 bf
       -0.4763546430096738 -0.18401046306251692
000670 bb 67 a2 6c 10 80 f8 3f fa 92 7c 6d 0b 32 ed bf
       1.5312656634837214 -0.9123589647684576
000680 c7 32 17 30 df d2 d6 3f 18 64 5d c8 9b 0e ad bf
       0.35662059494351833 -0.056752079208941264
000690 18 77 ff d2 07 fd ea bf 2e c3 73 11 cf 3f f6 bf
       -0.8433875199368428 -1.390578334972996
0006a0 28 f8 47 1e 25 b0 9e bf fe 04 87 50 b9 f3 d2 bf
       -0.029968814824307938 -0.29612572540288784
0006b0 4e d1 17 fd 93 c3 f0 bf aa 27 e7 dd 6b c0 fc bf
       -1.0477485548445489 -1.7969778698047585
0006c0 ac 52 dd a1 e5 e4 e0 bf 81 b1 79 ee 5f 12 cd 3f
       -0.5279415284554339 0.22712325233750266
0006d0 34 0b d2 e3 92 b7 e6 bf 20 09 ab 23 27 89 e1 3f
       -0.709908909761316 0.5479922958986982
0006e0 34 68 0b cd 1d 96 b7 bf 40 09 3a d1 01 61 e6 bf
       -0.09213434463473008 -0.6993416868647628
0006f0 fe 47 93 08 c7 65 d5 bf ba 6b 0b fb 2e 51 c7 bf
       -0.33433700406487776 -0.18216502435720178
000700 a2 21 be 2a 94 d1 da bf 94 15 8e 14 27 ba ea bf
       -0.4190416734131991 -0.8352237130608722
000710 b6 b7 ec 31 a6 2d dd 3f 49 db da be 45 3b e2 3f
       0.4559112060113607 0.5697354056963856
000720 3b c5 7b d5 8a e9 d8 bf 6c a2 ea 18 78 6b f9 bf
       -0.3892542919921486 -1.5887375806143167
000730 60 73 95 61 3f b3 a0 bf 32 5e aa 2a 3d 8e b8 bf
       -0.032617550527652694 -0.09592039386404208
000740 5e a5 eb 17 f5 40 f4 3f ae b8 6c a8 86 a9 d2 3f
       1.2658587393182965 0.2915970463535683
000750 a9 fb fa 90 fa 6a ed 3f ac c9 ed 84 13 2a e8 3f
       0.9193089324615943 0.7551362606302994
000760 86 e9 e2 03 8e 37 db bf ce af f1 76 95 79 d1 3f
       -0.4252657926514519 0.27304588904985116
000770 d6 e1 6a fa 50 e6 b0 3f 20 e2 bd ce c8 78 b5 3f
       0.06601434816082671 0.08387427375226553
000780 e9 20 16 d1 d7 16 e2 bf bf 56 ef 97 db f2 e1 3f
       -0.5652884563178563 0.5608957259634834
000790 42 2e 04 35 b5 c0 a1 3f 9a da 6e c5 5a 8d c1 3f
       0.03467336914226539 0.13712629928860026
0007a0 10 bf b2 b1 db 36 be 3f ea b6 98 67 ec 29 d7 bf
       0.11802456940017358 -0.3619338046727153
0007b0 e1 fd 94 2d 63 96 eb 3f dc 4d 35 26 5c 61 e6 bf
       0.8621078386567512 -0.699384760499409
0007c0 f4 ac a4 8f f5 db a4 bf 36 74 c1 d2 82 b0 e1 bf
       -0.04074065569360555 -0.5527967563936105
0007d0 a6 a0 3b c7 28 36 d0 3f ba 07 c0 37 44 ce d0 3f
       0.2533056207307801 0.26258950657222224
0007e0 0c cf 80 f6 b2 29 fd 3f 1d 9d 2f fc 69 43 db bf
       1.8226804379491481 -0.4259896242860622
0007f0 fe 2f ca 89 d9 01 d1 3f 6f d3 38 80 45 80 cb bf
       0.2657379003146615 -0.2148520351489895
